discriminator.pt (torch, 3877 bytes, 5 tensors)

model.0.weight f4 [16, 13]
000000 f6 c5 9a bd 40 43 72 3d a4 c7 46 bd bb ab 80 bd
       -0.07557289 0.059146166 -0.048530236 -0.06282755
000010 fd 36 0e bf 30 24 86 be d9 2d 18 3e 3c a5 99 bc
       -0.55552655 -0.26199484 0.1486124 -0.018755548
000020 24 c3 15 bf c9 b7 e8 bd 4a 96 cd 3e 76 00 93 3f
       -0.58500886 -0.11363179 0.40153724 1.1484516
000030 8b 0c 26 3f 18 5e 2f bf 5f 72 17 3e c7 09 25 3e
       0.6486289 -0.6850295 0.14789723 0.16117011
000040 e9 be c7 3e f1 1f 3c 3c 5a 14 26 3e 67 72 04 3f
       0.3901284 0.011482225 0.16218701 0.51737064
000050 ef 22 f4 bd 3a c9 2a 3c 2d 8a 1a 3f 4a d3 0e 3e
       -0.119207256 0.010423953 0.6036709 0.13947788
000060 7b f1 9f bf a2 ff 42 3f a8 7d ae bd cc b8 84 be
       -1.2495569 0.76171315 -0.08520061 -0.2592224
000070 c5 13 b7 be 2b 5f 19 bd 62 b8 b4 3d 36 1f 13 3e
       -0.3575727 -0.037444275 0.08824231 0.14367375
000080 ae c3 1d be 60 0c 5e 3d 31 87 86 be bd 9d 93 3c
       -0.15406677 0.05421102 -0.26275018 0.018019551
000090 2e 75 d3 3b 7c b6 69 3f 6a b7 9a 3c 96 df 60 3e
       0.006453178 0.91294074 0.018886287 0.21960291
0000a0 fa 34 84 bd 4e 95 41 bd bd 8a f6 be 15 de e7 be
       -0.06455417 -0.04726153 -0.48152724 -0.45286623
0000b0 2c a5 4b 3e a0 1b 03 bd cb 01 f9 3e 04 45 62 be
       0.19887227 -0.032008767 0.4863418 -0.2209664
0000c0 05 a3 32 3e 85 34 49 3c 88 25 2b 3f ae 9b 6b 3e
       0.17445 0.012280588 0.66854143 0.23008606
0000d0 94 39 d9 3e fc 89 bc 3e 3d 15 98 3e 9a d1 a6 bd
       0.4242674 0.36824024 0.29703704 -0.08145447
0000e0 ff 7c 27 3e 42 88 83 3e 99 ee 9a be 08 c7 bc 3d
       0.16356276 0.25689894 -0.3026016 0.0921765
0000f0 ec 62 04 bf b5 38 ac 3e b3 49 91 3e 54 ea 4f bf
       -0.5171344 0.33637014 0.2837654 -0.8121693
000100 26 12 33 3e ae 05 d3 be ee c9 9d be 58 c7 3e be
       0.17487392 -0.4121527 -0.30818123 -0.18630731
000110 8a 19 3a be a4 5c 02 3f 4c f4 9a be c7 c1 01 3f
       -0.18173805 0.5092261 -0.3026451 0.50686306
000120 16 89 92 3e e0 d0 64 3e 3c 6c 2f 3e 6a 11 24 be
       0.28620213 0.22345304 0.17131132 -0.16022268
000130 da b3 c0 be 09 b2 28 3f 22 d2 0d 3f 53 50 9e 3d
       -0.37637216 0.6589666 0.5539876 0.077301644
000140 a8 35 31 be db ae f4 bd c1 a6 20 3f 65 ee 34 be
       -0.17305624 -0.119474135 0.62754446 -0.17669065
000150 9e 08 e3 bd 90 98 8c 3d 82 99 87 be f7 68 f3 3d
       -0.11085628 0.068650365 -0.26484305 0.11885255
000160 c3 d7 2f be 40 4d 22 bf ec ff 47 be 7c e1 19 be
       -0.1717215 -0.63399124 -0.1953122 -0.15027422
000170 71 58 2e 3d 52 66 9d bd 0b 82 1d bc 2f f6 a8 bd
       0.042564813 -0.07685532 -0.009613524 -0.08250081
000180 b7 4e f2 be cf 32 42 bd 1b 0c 33 bf 9f 05 c8 3d
       -0.4732568 -0.047411736 -0.69940346 0.09766697
000190 b1 a4 a0 3e 1d 07 f4 3d a9 32 57 be 1d d0 74 3f
       0.3137565 0.11915419 -0.21015419 0.95630056
0001a0 06 01 68 3e 3c ee 8e 3e ac d2 57 be 98 d8 2c be
       0.2265664 0.27916133 -0.21076459 -0.16879499
0001b0 0a b2 1c be 12 6d 3f bf 48 5f 97 be 97 59 0a bf
       -0.15302292 -0.74775803 -0.2956488 -0.54042953
0001c0 97 50 2c 3e 3b f5 7b 3c 53 48 89 be 4b 9a a1 be
       0.16827618 0.015378292 -0.26812991 -0.3156303
0001d0 d3 dd 5b 3f 03 bb 2f 3e e5 fe c6 3d ad c9 86 bd
       0.8588535 0.17161183 0.09716586 -0.06581435
0001e0 0a fb 8a 3e 12 fe 85 be 8c 17 2a 3d f8 04 c9 be
       0.27144653 -0.26170403 0.041526362 -0.39261603
0001f0 6b 2e 2f 3f 1e ec 54 3e 03 6b 4e 3e 63 8a ed bd
       0.68430203 0.20793197 0.20158009 -0.11598661
000200 9c 65 95 bd 1f a5 ba bf 02 50 02 3f 7a ee 27 be
       -0.07294771 -1.4581641 0.5090333 -0.16399565
000210 9d ef b3 be 89 6b 1a be d5 17 31 3e fc e2 d7 3c
       -0.35143748 -0.15080084 0.17294247 0.026353352
000220 c7 a3 ce bd bd ab 37 3e 60 96 e3 be 33 d6 58 bd
       -0.10089832 0.17936607 -0.44450665 -0.05293865
000230 b7 ed 4d 3e 45 0d 17 3f 93 c3 f8 3e e3 16 81 3c
       0.20110212 0.5900462 0.4858671 0.015757984
000240 d9 5d 86 be 23 a6 12 be 96 3e 7d bd 5b c0 78 be
       -0.26243475 -0.14321189 -0.061827265 -0.24292128
000250 41 88 47 be cb f5 43 3e a7 7c 52 be 07 f6 e4 bd
       -0.1948557 0.19136731 -0.20555364 -0.111797385
000260 cd 20 0d 3d 72 fa 1a be 35 86 ec bd ba 34 5c bd
       0.03445511 -0.151346 -0.115490355 -0.05376122
000270 98 da 53 3f 16 dd be bc 54 6f 46 bd c5 ea 50 3c
       0.8275542 -0.023298781 -0.048446015 0.012751286
000280 e6 06 e8 3d 41 ac 5f bd 73 4d d1 bd f6 b1 06 3e
       0.11329441 -0.054607634 -0.102198504 0.13153824
000290 75 1c 98 bd a5 ac 02 be 56 6a 07 3e 80 eb 46 bf
       -0.07427303 -0.12761171 0.13224158 -0.77703094
0002a0 89 4c 33 3e 64 50 9a 3c 79 1f dd bd 8c 0a ee be
       0.17509665 0.018837161 -0.107970186 -0.46492422
0002b0 4c b3 c1 be 95 43 f7 bd a9 02 62 3e db c8 28 be
       -0.37832105 -0.12073437 0.22071327 -0.1648287
0002c0 96 17 a4 3e c1 46 bc be 9b 1d 89 bc 75 02 14 be
       0.32049245 -0.3677273 -0.01673775 -0.14454062
0002d0 f8 88 4a 3f 49 ed 0a 3f 33 f6 37 3f 55 c2 a3 3e
       0.7911525 0.5426832 0.71860045 0.319842
0002e0 86 31 85 3e 01 2d ff 3e 7a 96 66 3f 6c dd 05 3f
       0.26014346 0.49839023 0.9007336 0.5229099
0002f0 68 43 d4 3d ec dd 1b 3f 15 d0 66 be 2a 06 2d 3e
       0.10364419 0.608855 -0.22540314 0.16896883
000300 ab 8e f9 3e ae d4 d7 bc df f4 38 bf eb 90 3e 3e
       0.4874166 -0.02634653 -0.72248644 0.1860997
000310 da 07 d1 be 9f 77 ab 3e 3e 5a b6 3d 16 c4 3b bf
       -0.40826303 0.334897 0.08903931 -0.7334608
000320 4a 4a 0a 3e 60 39 86 be 75 67 f3 3e cc 0e c2 bc
       0.13504902 -0.2621565 0.4753987 -0.023688696
000330 24 d4 23 3d c5 5e a1 3e 8f c6 88 3f c2 88 17 be
       0.039997235 0.31517616 1.0685595 -0.14798263

model.0.bias f4 [16]
000000 bb c6 97 3e e6 1d 43 be c2 3e 64 be 5c fb 09 3e
       0.29643807 -0.19054374 -0.22289565 0.13474792
000010 6b 0a ed bc 6d 9e a1 bd 66 89 a8 3d 0a 32 c9 bd
       -0.028935632 -0.078915454 0.08229332 -0.09823997
000020 ac 91 42 3d 0c 14 f3 3d fc 27 8f bc 68 f6 04 be
       0.047502205 0.11869058 -0.01747512 -0.12984622
000030 fc ba 12 3e d0 5e 93 3d ee 9c b7 bd c4 84 b0 3e
       0.14329141 0.071958184 -0.08965479 0.34476292

model.2.weight f4 [8, 16]
000000 40 cc 2c 3f 93 ae e7 be e0 99 f0 3f fc b1 c2 3e
       0.6749916 -0.45250377 1.8796959 0.38026416
000010 a2 f5 60 3c 5f 25 ea be e3 f3 1a 40 a4 4a a9 3f
       0.013730438 -0.45731637 2.4211357 1.3225904
000020 91 15 59 bf 34 c0 12 c0 05 b4 41 bf 88 65 10 3d
       -0.8479853 -2.2929811 -0.75665313 0.035253078
000030 15 5a 7a 3f 50 06 94 3e 8f 1c f0 3e 6a 14 22 3f
       0.97793704 0.28911066 0.46896788 0.633124
000040 88 01 0a be 18 53 54 be ba 7a 22 be 62 85 31 3e
       -0.13477147 -0.20734823 -0.15867129 0.17336038
000050 50 14 ce bd e0 d5 77 3e 20 24 ad bd 98 26 18 bd
       -0.10062468 0.2420268 -0.08454156 -0.03714618
000060 98 72 8a 3d d8 69 14 3d 50 ce 86 bc 6e b9 63 be
       0.06760138 0.036233753 -0.0164558 -0.22238705
000070 a4 d6 c5 3d 5e c2 26 3e 16 85 74 be e8 f7 fb bd
       0.0966008 0.16285083 -0.23878893 -0.12303144
000080 70 37 8a be a7 ed 3e 3f 3d 90 29 c0 0a dd aa be
       -0.2699542 0.7458138 -2.6494286 -0.33371764
000090 13 c7 35 3f dd 17 b7 3f 17 c5 e5 bf e5 d0 1b bf
       0.7100689 1.4304157 -1.7950772 -0.6086562
0000a0 9a 71 15 3f 00 93 be 3f 41 e4 01 be 5c f6 fc bd
       0.5837647 1.4888611 -0.12684728 -0.12351677
0000b0 2f d9 07 3f eb e5 18 bf ad 40 f2 3e c7 2a b7 be
       0.5306577 -0.59725827 0.4731497 -0.35774824
0000c0 dd 9d 10 3f f3 97 a3 be 0e e3 d4 3f b0 26 c2 3e
       0.5649088 -0.31951866 1.6631792 0.3792014
0000d0 86 99 3b 3e b2 e4 d8 be 15 2e 17 40 be df a7 3f
       0.18320283 -0.4236198 2.3621876 1.3115156
0000e0 5d a7 88 bf a9 64 29 c0 15 1a 2c bf e6 24 1e 3e
       -1.0676075 -2.6467688 -0.672273 0.15443763
0000f0 06 5b da 3e eb 63 eb 3d 1a 32 8e 3e 66 10 29 3f
       0.4264757 0.11493667 0.277726 0.6604065
000100 35 f1 58 3e f7 0a 9a 3b b8 2a f8 bf 80 63 69 3c
       0.21185763 0.004701014 -1.9388037 0.014244914
000110 5b ae 0c be ac 6b 0d 3f 46 c0 05 c0 e8 38 e0 bf
       -0.13738386 0.5524242 -2.0898604 -1.7517366
000120 a0 7f bb 3e 9a 00 d1 3f 11 25 64 3f 88 e3 65 3e
       0.36620808 1.6328309 0.8911906 0.22450078
000130 71 66 72 bf 29 54 a6 3e ec 3f e1 3e 3d 74 82 be
       -0.94687563 0.32486084 0.4399408 -0.25479308
000140 e3 2a 3b 3f c8 c2 a4 bf 61 e5 ff 3e b4 a4 9b 3e
       0.73112315 -1.2871943 0.4997969 0.30399096
000150 21 86 5d bf 6a c6 bc bf 53 a7 a0 bf 35 63 0b c0
       -0.8653279 -1.4748051 -1.2551063 -2.17793
000160 6a e7 b3 3e 28 75 7c bf de 33 69 3f e0 51 e3 bc
       0.35137492 -0.98616266 0.9109477 -0.027749002
000170 58 af 19 c0 de d7 46 3f d5 9b cc be 07 22 be 3d
       -2.4013271 0.7767314 -0.3996264 0.09283834
000180 4c 3f be 3d d9 f1 86 bf 90 75 c9 bf 5a 66 e3 3e
       0.09289417 -1.0542556 -1.5739002 0.44414026
000190 81 22 da 3d 83 fb 7c bf 9f 66 69 bf 5a 30 be bf
       0.10651112 -0.98821276 -0.9117221 -1.4858506
0001a0 3a 0e 13 3f f7 9e f1 3f 28 2d a7 3e 80 fb 89 3b
       0.57443583 1.8876637 0.3265164 0.0042108893
0001b0 62 fa 37 be f5 77 22 3f fb 3b ba 3d 88 cb c3 3d
       -0.17966607 0.6346429 0.090934716 0.09560305
0001c0 2b 4c a9 bd 8c 0d 8c bf eb e0 f3 bf 2d 90 83 3e
       -0.08266481 -1.0941634 -1.9053015 0.25695935
0001d0 2e fa b0 bd 80 48 61 bf f6 7e 8a bf 02 82 ae bf
       -0.08641468 -0.8800125 -1.0819995 -1.3633425
0001e0 f0 0d 3e bd 00 4a 00 40 43 3a 5e 3f 4a 92 54 3e
       -0.04640001 2.0045166 0.8680765 0.2075893
0001f0 62 2a 31 bf 59 76 e1 3e c6 6d bc 3e 06 e1 93 3e
       -0.69205296 0.44035605 0.368025 0.28882617

model.2.bias f4 [8]
000000 76 b9 c1 3e 1e fe 4f be 02 c8 3e be c5 da 65 3e
       0.37836808 -0.20311782 -0.18630984 0.22446735
000010 3c 58 5f be 08 20 ec bc b8 51 73 bd a6 f6 3a be
       -0.21811002 -0.028823867 -0.059404105 -0.18258151

model.4.weight f4 [1, 8]
000000 92 a0 d6 bf d3 e4 2d 3e c0 5a 16 40 30 4a a7 bf
       -1.6767752 0.16981821 2.349289 -1.3069515
000010 97 20 da 3f 51 51 65 40 e1 cd 03 40 53 d3 12 40
       1.7041196 3.5830882 2.0594409 2.2941482
