generator.pt (torch, 2003 bytes, 4 tensors)

model.0.weight f4 [4, 13]
0	0x3f7101d5	0.9414342
1	0xbebae884	-0.3650552
2	0x3f396c2a	0.7243067
3	0x3eeb2bd0	0.45931864
4	0x3f17159f	0.59017366
5	0xbf197539	-0.5994449
6	0xbe178197	-0.14795528
7	0x3e41ada5	0.18913896
8	0x3e26d7cf	0.16293262
9	0xbe91d590	-0.28483248
10	0xbe9e0f15	-0.30870882
11	0xbe940b5e	-0.28914922
12	0xbe6cef3d	-0.23138137
13	0x3f01f247	0.5076031
14	0x3efc0ec8	0.49230027
15	0x3e3cf12d	0.18451376
16	0x3d9c5f6f	0.0763539
17	0x3faed8a6	1.3659866
18	0xbe021257	-0.12702309
19	0x3e8e1a22	0.27754313
20	0xbe2a3897	-0.1662315
21	0x3e16b188	0.1471616
22	0xbe71daf1	-0.23618676
23	0xbf264ece	-0.64963996
24	0xbe8fbb22	-0.28072459
25	0xbd6d8273	-0.057985734
26	0x3f21d47f	0.6321487
27	0x3f93308c	1.149919
28	0xbea420f5	-0.32056394
29	0xbdf772b7	-0.12082427
30	0x3f93b041	1.1538163
31	0xbf5ea046	-0.8696331
32	0xbba74e56	-0.005105774
33	0xbf6fafb9	-0.93627506
34	0x3f797e4b	0.9745833
35	0x3eeac50a	0.45853454
36	0x3ec1d881	0.37860492
37	0x3c03cba8	0.008044161
38	0xbe5c397d	-0.21506305
39	0xbe4858bb	-0.19565098
40	0xbf5a5a0e	-0.8529366
41	0xbd8ceb12	-0.068807736
42	0x3e8541b1	0.2602668
43	0xbf859d03	-1.0438541
44	0xbfad7de6	-1.3554046
45	0xbf805256	-1.0025127
46	0x3f2ac439	0.6670566
47	0x3f7e267d	0.9927748
48	0xbe0715ac	-0.13191861
49	0xbf0dba66	-0.55362546
50	0xbee90841	-0.4551411
51	0x3e86c50c	0.2632221

model.0.bias f4 [4]
0	0x3cf8476f	0.0303075
1	0xbdcf3305	-0.10117153
2	0x3ee31d89	0.4435847
3	0x3f3de883	0.7418291

model.2.weight f4 [2, 4]
0	0x3dab991f	0.08378815
1	0x3f5a7670	0.8533697
2	0x3f53c5c8	0.82723665
3	0xbffb4f42	-1.9633563
4	0x3fb1daaa	1.3894856
5	0x3f652adc	0.89518523
6	0xbfd6f12e	-1.6792352
7	0xbd362b26	-0.044474743

model.2.bias f4 [2]
0	0xbfa5e70d	-1.2961136
1	0x3ef13ee8	0.47118306
